fall_detection_model.tflite (tflite, 7784 bytes, 6 tensors)

arith.constant1 f4 [4, 1, 3, 6]
00000000: 155f e03e a71f 7ebe aace f7bd 4f93 9e3c
00000010: 8c67 a73e 0659 1f3e 795a 72be 0706 e0be
00000020: ce4a 893e 861f ea3e e40a 713e d720 3f3e
00000030: bacc 18be 0082 943e 8e92 f63d 33c4 c9be
00000040: 0717 1dbe a4f6 2f3e 7bfa 92be f3f3 013d
00000050: 5f18 193e 9025 3b3d 5766 04bf 4176 87be
00000060: 8933 f03d b22a c73e 2358 bf3e b8dc a03e
00000070: 3af8 99be af8c 94be f9cc 0e3e b373 3b3e
00000080: 4bcd 323e 29a3 86bd 74f4 61be 5731 c0bd
00000090: c50e 93be cc19 ecbd 4148 a23d da69 8bbe
000000a0: 51d5 4cbe 65c9 bd3e 5a32 a3bd 1336 c43e
000000b0: 0e11 07bd e0ae edbe 7c77 8ebd 734c a3bd
000000c0: 7949 1c3c 5f2b 043f 9b2a 59be c883 f8be
000000d0: dcdd d1be b383 0e3e 6135 c6bd 6525 efbd
000000e0: efdf 9b3e 633b 7abd cc39 bd3e a722 8ebe
000000f0: 34d9 0d3e a263 adbe f823 8e3c 7626 debe
00000100: 3338 8ebd fa85 e1be 93b3 8cbe 7a20 993d
00000110: fda0 b3be b75d d0be e44f bf3e bb44 96be
0.43822542 -0.24816762 -0.12099965 0.019357352 0.32696187 0.15561303 -0.23667325 -0.43754598
0.26814884 0.45727175 0.2353931 0.18664871 -0.14921847 0.29005432 0.12039672 -0.394075
-0.15340815 0.1718393 -0.28706726 0.03172679 0.14950703 0.04569012 -0.5171866 -0.26457408
0.117285796 0.3889976 0.3737193 0.31418395 -0.30072194 -0.29013583 0.13945378 0.18305854
0.17461126 -0.06574089 -0.22065908 -0.09384411 -0.28722206 -0.11528358 0.079239376 -0.27229196
-0.20003249 0.37067714 -0.07968588 0.38322505 -0.03297525 -0.46422482 -0.069563836 -0.07973566
0.009539002 0.5162868 -0.21207659 -0.4853804 -0.40989578 0.13917427 -0.0967815 -0.11677054
0.30444285 -0.06109179 0.36958158 -0.27760813 0.13852388 -0.33865076 0.017351136 -0.43388718
-0.06944313 -0.44047529 -0.27480754 0.074768975 -0.35083762 -0.406965 0.3736564 -0.29349312

arith.constant2 f4 [4]
00000000: 0000 0000 0000 0000 0000 0000 0000 0000
0.0 0.0 0.0 0.0

arith.constant3 f4 [1, 4]
00000000: 4c25 ff3e a8cc 84bf cf86 ca3e 91e2 0b3d
0.49833143 -1.0374956 0.39555976 0.034151617

arith.constant4 f4 [4, 236]
00000000: 7e6a 083d d9cb 213e 3b67 2bbc 0066 b73d
00000010: 753c 0a3e 9bf7 be3d fa1a 113e fe18 f23b
00000020: 9984 563d aa8d 273e 6b1c cbbb bfe2 473d
00000030: cfa4 883d 9cfe 293e 663d fb3d ca33 953d
00000040: 141f 23bd a809 25bd 8c76 beba d750 573c
00000050: 4071 89bd 7648 093e 2c62 1fbd b943 2b3e
00000060: d8c3 ab3c 011d f43d fc21 933d c272 2d3e
00000070: 5547 983d 0f51 d7bd 174f 093e 5de4 d23d
00000080: b6db e6bd cecc 143e 01a9 81bb 945b 0e3d
00000090: 3303 b0bc 5cbd dc3d 1f3f 7f3d e666 f3bd
000000a0: cd41 da3d 78ce 3d3d 8497 253c 8152 03be
000000b0: 5502 5a3d 4051 62bd c36c 28be fc31 fb3c
000000c0: 15e7 f5bd a515 10be f6a0 28be ab02 d3bd
000000d0: 180b 7fbd 4466 acbd 58f5 083c fc51 b53d
000000e0: 1bba 18bd c273 b33d 3937 c3bd 6bdd 063d
000000f0: 3650 5d3d 683b 043d c240 4a3d afcc 91bd
00000100: 0867 a43d 22eb b13d 7a0c 263d a040 af3d
00000110: 2e8f b7bd 1367 2dbb e596 883d b3ba 02be
00000120: 58dc cd3c 179d 95bc 5292 d1bc 41b1 acbd
00000130: 8969 ac3d 880d 9a3d bb49 e23d aac8 a53d
00000140: b0b2 d53c 4627 b8bd 6f4e ad3d 0de1 f1bd
00000150: 1e09 9e3d e3c5 aebc 5edd e5bd c2af c0bd
00000160: a80a 013e ba2a f43d d426 213c ee88 45bd
00000170: 6427 ddbd 431f f43b 08e5 72bc bfc1 9abd
00000180: b6bb 97bd e073 cfbd 6612 95bd ab64 403d
00000190: cc2d a2bc 4011 4c3d 72ca 07be e425 56bc
000001a0: 7bd9 913d 8926 eebd 44a1 b1bd e468 d9bd
000001b0: 3775 893d 4617 53bb c759 73bd d6d6 cb3c
000001c0: 2586 603d 5451 643d 2326 85bd d213 8c3d
000001d0: 496c 213c 2466 9fbd bd68 26be 9f85 62bd
000001e0: 0194 43bd 059a dc3d 4c9d d5bd 3aa4 5fbc
000001f0: 8106 473c 1275 e0b8 d4df a73d 7204 15be
00000200: efdb b03d d972 b63d c0ce 933d ac7c 853d
00000210: 5a36 11be aa2b 12bd e7e1 053e 6d58 2ebd
00000220: 84f0 be3d c541 89bd fa7d 1a3e 88ca 8f3d
00000230: a65d 5f3d dffb 69bb fbb0 41bb fa9e 523d
00000240: b954 b53d 05bd 10bd 3837 d2bd dd44 51bd
00000250: eef6 c9bd 1bd5 b0bd f48f e73d 3d9a 04be
00000260: 3e7a fabd 3bef 8abd 89cf 003e 5db1 adbd
00000270: f920 46bc 0602 d6bd 986a 9e3d 7f03 7f3d
00000280: 6810 a7bd c113 c6bd 6b39 0b3e f8af 1d3e
00000290: d126 ca3d 0082 34b5 b9cb e13d 3cf2 59bb
000002a0: e4ee afbd 79fc 693d b207 4b3e da91 b6bb
000002b0: 2731 953d f80a b03d 29c8 0b3e 1634 c23d
000002c0: 9d2e 3fbd f52e 2e3d 46f0 9a3d 08c5 813d
000002d0: 5da8 0abd 95ea be3d dc06 483e 5fd4 983c
000002e0: 90e4 233e b9ba 6cbd 2d9a ca3c 8731 62bd
000002f0: adb0 b33c 68ca a43d 55ef bcbc 8d8d 273b
00000300: 7f71 85bc 6924 05bd 1711 eb3c 6b1a e7bd
00000310: 9de2 913c 04ad 243e 972c 39bc ca0c 87bc
00000320: c5ee da3d 0096 663d 90f9 843c 5a2e 78bb
00000330: 0c5f e7bd c253 4f3e d11f 003e 57af 0f3e
00000340: 6d80 bd3d 0fcd 3e3e 5f3e b23c b2d2 ff3c
00000350: 178a d53d a8cb acbd 7fdd 283d 0a23 80bd
00000360: 1af9 c73d ab72 ae3d 9bca 413e 823c 96b8
00000370: 0d4d e03d 720e 0f3e 453f 16bd d849 bcbd
00000380: ad90 823d 2c79 683d b0dc a03d f627 673d
00000390: 8a5f 88bd a149 ac3d 1bed 933d b1df a6bd
000003a0: 4561 e63c a624 1c3e dff1 0a3d 11df ef3c
000003b0: 2c0e f6bd 2567 1dbd b45d 19be c978 cf3d
000003c0: 68e8 d6bc 1658 aebd 7e2b afbd 5273 42be
000003d0: 2816 c03d 14c7 13be a922 0cbe 66c8 ecbd
000003e0: fa6c d6bd d01e c8bd 1eed 05be 05a5 e43b
000003f0: 9658 f4bd ea63 d03d c1fb cd3c 5760 69bd
0.033304684 0.15800418 -0.010461624 0.08955002 0.13499625 0.09324571 0.14170447 0.007388233
0.05237255 0.16362634 -0.006198456 0.048800226 0.0667206 0.16601032 0.1226757 0.072852686
-0.03982456 -0.040292412 -0.0014531179 0.013141832 -0.06711054 0.13406548 -0.038911983 0.16725053
0.020967409 0.119195946 0.071842164 0.16938308 0.074354805 -0.105135076 0.13409077 0.10297463
-0.11272375 0.14531252 -0.0039569144 0.034755304 -0.0214859 0.10778305 0.062316056 -0.11884861
0.10657082 0.046339482 0.010106925 -0.12824441 0.05322488 -0.055253267 -0.1644774 0.030663483
-0.12006966 -0.14070757 -0.16467652 -0.10303243 -0.06226644 -0.08417943 0.008359276 0.08853528
-0.03728686 0.087623134 -0.09532017 0.032926004 0.054031573 0.032283217 0.049378164 -0.071191184
0.08027464 0.08687426 0.040539242 0.08557248 -0.08962856 -0.0026459142 0.06669406 -0.12766533
0.025129482 -0.018263383 -0.025582466 -0.08432246 0.08418567 0.07522112 0.11049219 0.08094914
0.026086181 -0.08991866 0.08462226 -0.11810503 0.07716583 -0.021334594 -0.11223863 -0.09408523
0.12601721 0.11922212 0.0098359175 -0.04822629 -0.10798529 0.0074500157 -0.014825113 -0.075564854
-0.0740885 -0.10129523 -0.072789 0.046971004 -0.019797228 0.04982114 -0.1326082 -0.013070557
0.07121559 -0.11628444 -0.08673337 -0.106157094 0.0671181 -0.0032209917 -0.05941179 0.024882715
0.05481543 0.055741623 -0.065014146 0.06839718 0.009852477 -0.07783154 -0.16250892 -0.055303212
-0.04774857 0.107715644 -0.104303926 -0.0136499945 0.012147547 -0.000107029584 0.08196989 -0.14552477
0.08635699 0.08908624 0.07217169 0.0651792 -0.1418089 -0.035686173 0.13074456 -0.0425648
0.093232185 -0.06701998 0.15087119 0.07021052 0.05453267 -0.0035703105 -0.0029554951 0.051421143
0.0885405 -0.035336513 -0.102644384 -0.051091064 -0.09861551 -0.08634397 0.11306754 -0.12949462
-0.12230347 -0.06783911 0.12579168 -0.08481095 -0.012092822 -0.10449605 0.07735175 0.062259194
-0.08157426 -0.096717365 0.13596122 0.15399158 0.09870685 -6.72444e-07 0.11025185 -0.0033255955
-0.08590487 0.057125542 0.19827154 -0.005571586 0.07284766 0.08595842 0.13650574 0.09482591
-0.046675313 0.04252525 0.0756536 0.06336409 -0.03385197 0.09322087 0.19533867 0.018655954
0.16005158 -0.05779526 0.02473172 -0.055223014 0.021934832 0.080464184 -0.023063341 0.0025566549
-0.01628947 -0.032505427 0.028694673 -0.11284336 0.017808253 0.16081625 -0.011302135 -0.01648559
0.10690073 0.056295395 0.016232282 -0.0037869425 -0.11297426 0.20246795 0.12512137 0.1403173
0.09253011 0.18632911 0.021758256 0.031228397 0.10426729 -0.08437282 0.04122686 -0.06256683
0.09764309 0.08517965 0.18924944 -7.163828e-05 0.10952196 0.13970354 -0.036681432 -0.09193772
0.06375251 0.056756184 0.07854593 0.056434594 -0.06658848 0.08412481 0.07222959 -0.081481345
0.028122554 0.15248355 0.033922072 0.029281171 -0.12014422 -0.038428444 -0.14977151 0.1013046
-0.026233867 -0.08512895 -0.08553217 -0.18989304 0.09379226 -0.14431411 -0.13685097 -0.115616605
-0.104700044 -0.09771502 -0.13078734 0.0069776797 -0.11930959 0.10175307 0.02514446 -0.056976642

arith.constant5 f4 [1, 1, 4]
00000000: 1116 943b 5889 153c 35ab c53c 9066 b43c
0.004519232 0.009126984 0.02412949 0.022021562

arith.constant6 f4 [4]
00000000: 783e 323c 4e2b 303d 8648 223c e0bf 27bb
0.0108791515 0.04301005 0.009904986 -0.0025596544
